DNN_HW3/best_model/MLP_regressor.pt (torch, 724479 bytes, 9 tensors)

linear1.weight f4 [512, 14]
00000000: 590d 093e b05f d63c adcf 2d3e 5e28 b43d
00000010: 6a45 623e 94be 403e c4e8 24be 1c08 25bc
00000020: be68 48be b28e 743e 472f ff3d 6e45 a7bd
00000030: ba7f 84be 8e97 9abe d67b 45be 84d2 08bd
00000040: a025 f53d f4c1 ebbd 0065 bfbd 805b b03c
00000050: a077 f93d a467 9a3d 2484 203e 740c 623e
00000060: 6062 e23c 8071 453e a03f 283c 044e ff3d
00000070: fbbd eb3d 2dcd e1bc 252a 793e 76b8 1dbe
00000080: d3b7 1fbe 1a57 0ebe 9616 7c3c 850a 42bd
00000090: aaf4 83be 773f d73c 4601 56be f090 bfbd
000000a0: 4729 c7bd 42fb fbbd a04e 14be c0e3 8abd
000000b0: 3ebe 023e a9c7 e73d 2874 4d3e 36fa 9f3d
000000c0: 086c 863e 50fc 323e de77 1b3e e130 f53d
000000d0: e4d2 343d 7d4c a03c d037 f03c e3b9 2cbe
000000e0: c8a3 383c 4154 153e 041e 9abd d18b afbd
000000f0: 4fcb 5abe 5b2a f6bd 9d98 afbd 8972 773e
00000100: 9b1a f4bb 1a0f 17be b85b ddbd 3f22 bebd
00000110: 8fc4 7d3c a9e9 19bd 5838 30be be0e 3fbe
00000120: c8c5 d8bc cd76 28be 1e1c 42be 004c f6b9
00000130: 2e2b 82be de09 23be 62c1 193e 4a19 70be
00000140: 09a5 833e 485a 0d3e c83e f2bd d4c5 a23d
00000150: c89e b4bd 241c e83d 503d 223e e45b 70be
00000160: 406a d23c 605c ae3d 805e f93b 54cb e53d
00000170: 48ed c83d cf35 87be d02c 503e 62ed 5f3e
00000180: 2048 20be 1023 b1bd 26a2 0d3e 723a 06be
00000190: 227b 343e c39b 86be 460c c43d 060b 66be
000001a0: e6a7 253d 12be 61be aadb 26be 5497 5d3e
000001b0: 1adc 55be dc98 6dbd 9a31 3a3e 79d0 15be
000001c0: c31c 8a3d c4cb 173e 7a2a 773e 8f29 54be
000001d0: 79e1 2ebe 9cf7 acbc abe6 5f3d 5c24 a6bd
000001e0: 54f4 543d 9da3 32be 1fbb 56be 4df0 773e
000001f0: 11f6 72bd f4fe 93bc dd7c d13c 8b81 353e
00000200: 092d 2b3e 54f5 d6bd 0608 49be 1b42 b63b
00000210: 4bb0 b8bd 20a4 7fbd 92e0 033e 6810 693e
00000220: a8e8 cbbc 3775 80be 7e4a 833e a741 6e3d
00000230: d82e 2cbd f148 6b3e 5a14 3fbe abe1 cb3c
00000240: f5b8 5abe 0cdc 68bd cde1 7b3d 030f 823b
00000250: f3d1 143e eca8 dfbd 147f 813e cce9 043c
00000260: 304d 8c3e 6989 55bc 2163 ee3d 9b93 e9bd
00000270: 3e63 f83a 40ef 823e 5ea7 a9bd 24e0 193e
00000280: c129 6b3b 7f21 66be fbef 08be 9b0d 263e
00000290: 9961 513e e9ba 8a3d aae5 843e 0bad 2b3d
000002a0: 6ae3 473e 23ce 5b3e 9ff4 7f3c 4c11 b23c
000002b0: 71b7 0d3d 92b3 42be 3609 ad3d 0c6f d73c
000002c0: 3075 613d 4abb 6ebe dde3 743e e44d 08be
000002d0: dd65 0b3e cedb 173e 5281 2abd ff39 033e
000002e0: 8d48 8a3e d7ba 353d 0979 753e e9b8 d3bc
000002f0: 87ce 88bd c74e 043c 2279 b0bd 42d5 0e3c
00000300: bbe9 c8bd d8a3 5f3b a4c3 8fbd e633 503e
00000310: 0ab6 53be 2b6c b4bd 8952 4b3e 0e74 dd3c
00000320: b27c eb3d 3d41 313e 9d75 03be 82b3 79be
00000330: 184b 85be c5b2 893e e407 d13d 9c14 72be
00000340: 3086 723e f9a9 4c3e 508c 4c3d 69c7 45bd
00000350: 12af 47be cf45 ceba a421 613c e84c 003e
00000360: 6327 86bd 5e76 dfbd e5d6 7d3e 4171 92bc
00000370: d52b 26be 39a3 58be 1d29 71be ea51 7abe
00000380: 234a 7ebe 29ad 4dbe 462b 4d3e c9df 3b3e
00000390: 710e 0cbe 9dab 413d 3d8d bebd 5527 953d
000003a0: 8424 703e 1068 3e3d 1046 ef3c a6bb c63c
000003b0: 7da6 303e 730a 373e 784f 263e 7942 f6bd
000003c0: c3f7 463e 0662 fa3d bccd b2bd 3e68 25bc
000003d0: bfad 163e 8afa c4bd ca27 86be d7b2 003d
000003e0: 55d5 373e 906f 803d 784b 6e3e 121f 523d
000003f0: cf32 7dbe 3699 07be b7ac 82be 8259 1f3d
0.13383998 0.026168674 0.16973753 0.08796762 0.22096792 0.188227 -0.16104418 -0.010072734
-0.19571206 0.23882559 0.12460189 -0.081675395 -0.25878698 -0.30193752 -0.19285521 -0.03340389
0.11970067 -0.11511603 -0.09345436 0.021528006 0.1218102 0.07539299 0.15675408 0.22075063
0.0276348 0.19281578 0.010269076 0.12466052 0.11510845 -0.027563656 0.24332483 -0.15402398
-0.15597467 -0.13900414 0.015386244 -0.047373313 -0.257726 0.02627538 -0.20898923 -0.093538165
-0.0972467 -0.12303783 -0.14483118 -0.06781721 0.12767884 0.11317379 0.20063841 0.07811396
0.26254296 0.17479062 0.15182444 0.119722135 0.044146433 0.019567722 0.029323488 -0.16867785
0.011269517 0.14582922 -0.07525256 -0.0857159 -0.21366619 -0.120197974 -0.085740305 0.24164785
-0.0074494607 -0.14751855 -0.108085096 -0.09283876 0.015488758 -0.03757635 -0.17208993 -0.18657967
-0.026461497 -0.16451569 -0.18956038 -0.000469774 -0.25423568 -0.15921733 0.15015176 -0.23447147
0.2571185 0.13803971 -0.11828381 0.07947889 -0.088193476 0.113334924 0.15843701 -0.23472553
0.02568543 0.08513713 0.007610142 0.112204224 0.09810883 -0.2640824 0.20329595 0.21867898
-0.15652514 -0.08649266 0.13831386 -0.13108233 0.17625096 -0.26290712 0.095726535 -0.22465143
0.040443324 -0.22045162 -0.16294733 0.21639758 -0.20884743 -0.058007106 0.18182984 -0.14630307
0.06743767 0.14823824 0.24137297 -0.20718978 -0.17078198 -0.021114163 0.05466334 -0.08112404
0.051990822 -0.17445226 -0.20969819 0.24212761 -0.0593167 -0.018065907 0.025572235 0.17725198
0.16716398 -0.104960114 -0.19631967 0.0055620796 -0.09018 -0.06241238 0.12878636 0.22760165
-0.024891213 -0.25089428 0.2564277 0.05816808 -0.04203686 0.22977044 -0.18660107 0.02488788
-0.21359618 -0.056850478 0.061494637 0.0039690747 0.14533214 -0.10920891 0.25292265 0.008112382
0.2740264 -0.013033249 0.11640001 -0.11405107 0.0018950475 0.25573158 -0.08283876 0.15026909
0.0035883042 -0.22473715 -0.13372795 0.16216128 0.20447387 0.067739315 0.2595647 0.041913074
0.19520345 0.21465354 0.015622287 0.021736763 0.03459877 -0.19013813 0.084490225 0.026298068
0.0550434 -0.23313633 0.23915048 -0.13310963 0.13613077 0.14829943 -0.041627236 0.12815093
0.27008477 0.044367637 0.23971952 -0.025845008 -0.06680017 0.008075423 -0.08616854 0.008717837
-0.098102055 0.0034124758 -0.07019737 0.20332298 -0.20674911 -0.08809694 0.19855703 0.027032878
0.11498393 0.17310043 -0.12837835 -0.24384883 -0.26033854 0.26894203 0.10206583 -0.23640674
0.23684001 0.19986714 0.0499385 -0.048285875 -0.19500378 -0.0015737357 0.013740931 0.12529337
-0.06550481 -0.109112486 0.24789007 -0.01787627 -0.16227658 -0.21156015 -0.2355084 -0.2444531
-0.24832968 -0.20085587 0.20036039 0.18347086 -0.13677384 0.047282804 -0.09304283 0.072828926
0.2345143 0.04648596 0.029208213 0.0242594 0.1725101 0.1787508 0.16241252 -0.120243974
0.19430451 0.12225728 -0.08730647 -0.010095654 0.14714716 -0.09618099 -0.26202232 0.031420555
0.17952473 0.06271279 0.23270977 0.051299162 -0.24726413 -0.13242039 -0.25522396 0.03890372

linear1.bias f4 [512]
00000000: bba5 383e 4fa1 83be 074b 4e3e 4da1 833d
00000010: 51ca 043d 2839 a33d 513d 85be d469 74be
00000020: 6f98 b5bd be7d 76be bf4a 2c3e 36fa f2bd
00000030: 48ce cdb9 06fc 2f3e 4072 ccbd 8912 733e
00000040: 11d8 6fbe 8367 143d e77c 87bd 8fff af3d
00000050: 65ac 9cbc c75a 01be 2f23 2b3e 2345 043e
00000060: 4c69 393d c06a e0bb 17be de3d bb36 ca3d
00000070: 8d58 2f3d 3d2d 613e 10a5 debc a6d8 70be
00000080: bd5e 6ebe 31b4 85be 31c5 88be 345b 00be
00000090: f1f5 25be 218a 013d 5cc0 24be 8ae7 613b
000000a0: 02fc 91bd 913b 323e 0056 503e dbc7 8cbd
000000b0: 3c24 293e 5469 32be fe4a 5abd 692f 033d
000000c0: 71e4 e8bd 858e c7bc 2ea8 723e e1d0 7c3e
000000d0: f9d3 133e cb25 d73d eeb3 3ebe 5274 4dbe
000000e0: 5c2a 813e b861 17bd 3dac 263e 2067 24bd
000000f0: eff5 72be b093 e63d e08e 6f3e 76f5 413d
00000100: a866 33be 27d3 363e 0298 643e 98b7 983d
00000110: c118 1a3e d5df 93bd f2b5 8fbd e6b3 c6bd
00000120: 42d5 e43c d8a3 103e ab4a a53e 1899 38bd
00000130: a0d0 6bbe a5dd 85be 8d09 e3bd aef8 c4bd
00000140: 7d9d 0ebe 57ff eebc 1e6a f53c 0a11 44be
00000150: 9996 753e 68a4 5e3d 82bb 353d b6e8 59be
00000160: 1eef 34be 613d aa3d 90fe 1abe 0b33 b03d
00000170: fa7a 86bd 0cf3 63bd 0409 0e3e 4585 ea3d
00000180: 4083 51bd ad3b 2b3e 80ae c53d d406 4ebc
00000190: 7962 073e 2e1c 79be 8612 0fbd f683 2dbe
000001a0: 30e1 7fbc dcf2 f8bc bd64 213e a204 80be
000001b0: 5f18 f43d 4bdf be3d 523f bf3c 0a4b 143d
000001c0: 46d9 383d 6bf0 d5bc dbb6 653d e219 843e
000001d0: a17b 48be c256 c0bd d6a0 e1bd f5ed 34bd
000001e0: 26e5 633e ba1e 8a3d e0ca 8fbc cb95 df3d
000001f0: c0c4 9d3d cdd9 7abd 2925 933c 344a b03c
00000200: 4b25 883e 7817 85be fbf0 05be 6a44 4ebe
00000210: 1962 583e c9c7 1abd 9ee6 e2bd 9d43 363e
00000220: 0842 633e c65a 8fbd 440c cabb efb1 4e3e
00000230: d181 4fbe 9035 80be b743 213d 252a 333e
00000240: 206d f13c 780e d5bc 0d57 cf3d 355b 403e
00000250: 3cdc 1e3e 8140 5abd f56c 40be 7e47 a3bc
00000260: e05d 533d a5db 4fbe 3f99 32be b1b3 753e
00000270: a3a6 7cbd 6602 1cbe 4083 133c 9299 81bd
00000280: 0019 18bb feae 6abe 435f 6d3e f2ef f23d
00000290: 5914 873e dccc 96bd 8fae 74be f445 213e
000002a0: 9baf a13d 45e4 8e3d 2624 773e c494 1cbe
000002b0: dd7b f1ba e6b0 723e c74e 06be b6a3 553e
000002c0: 83e5 1a3d e6ea 2dbe 5eff 6b3e d546 19be
000002d0: f666 4cbe 1ea1 87be 6e24 1c3c 8d56 6b3e
000002e0: 2a9b c7bd bcbe 403e fee4 0f3e 4705 7bbe
000002f0: 1a94 493e 868b 98bd 26dd 623e bce6 86be
00000300: 2f46 da3d 5bf8 45be d705 7cbe 4889 4bbe
00000310: 2bdc 04be cb1f 433e 82ad 23be 85d7 43bb
00000320: 659f 66be 9bc6 623e eda1 26be bb7c 153e
00000330: 9b71 0abe 0135 4a3e 942c 533e 57ab 23bd
00000340: c52a d3bd 1693 20be 6658 a63d edda 3f3e
00000350: 15d4 493e 2be2 64be d1e7 22be c6f3 693e
00000360: c458 823e 989b 2d3e 143f 5fbc d62a 55be
00000370: 0b8b 68be e3f3 793e 17bd a0bd 44c3 813e
00000380: 74c0 5bbe 328f 6f3d 9d19 5e3e d520 82be
00000390: 89f8 843e da7b 33be d266 4fbe 5d9c 623d
000003a0: d552 723e 50e0 82be 299e 6f3e fecf fc3d
000003b0: 475c db3d 702c c83d 629b d1bd a392 8b3e
000003c0: d414 643e ac50 8bbd b3fc 823e c47e 3c3e
000003d0: edf1 5d3e ddeb 823e 14f1 6e3e 2fde 743e
000003e0: 39dc 6abe e3c4 cbbd 06fd 80be 4e7b f5bd
000003f0: 67a7 bd3c a918 823e bb6a 6e3e 23b7 9ebc
0.18031971 -0.25709006 0.20145808 0.0642725 0.032419506 0.07969886 -0.26023343 -0.23868495
-0.08866965 -0.24071404 0.16825388 -0.1186413 -0.00039254338 0.17185983 -0.09982729 0.2373754
-0.23422267 0.03623153 -0.0661562 0.08593666 -0.019125173 -0.12632285 0.1671264 0.12916999
0.045266435 -0.006848663 0.108761005 0.0987372 0.042809058 0.21989913 -0.027178317 -0.23520145
-0.23278327 -0.26114038 -0.26712945 -0.12534791 -0.162071 0.03162587 -0.16089004 0.0034470283
-0.07128145 0.17405535 0.20345306 -0.06874057 0.16517729 -0.17422992 -0.053294174 0.032027636
-0.11371697 -0.02435995 0.23696968 0.24689056 0.1443633 0.10505255 -0.18623325 -0.20063904
0.2522763 -0.036958426 0.16276641 -0.04013741 -0.23726629 0.11258638 0.23394346 0.04735323
-0.17519629 0.17853986 0.22323611 0.07456893 0.15048505 -0.07220427 -0.07017125 -0.09702282
0.02793372 0.14125001 0.3228353 -0.045067877 -0.23028803 -0.26145664 -0.11085806 -0.096177444
-0.13927265 -0.02917449 0.029957827 -0.19147125 0.2398323 0.05435601 0.044368275 -0.21280178
-0.17669341 0.08312488 -0.1513617 0.08603486 -0.06566425 -0.05565171 0.13870627 0.114512004
-0.05115056 0.16721983 0.09652424 -0.01257487 0.13221158 -0.24327156 -0.034929775 -0.1694487
-0.015617654 -0.030389242 0.15761085 -0.25003535 0.11918711 0.093199335 0.023345623 0.036204375
0.045129083 -0.026115617 0.056082588 0.25800997 -0.1957841 -0.09391548 -0.11017005 -0.044172246
0.22255382 0.06744142 -0.017552793 0.109172426 0.07703543 -0.061242867 0.017962055 0.021519758
0.26590952 -0.25994468 -0.13080208 -0.20143285 0.21131171 -0.037788186 -0.11079143 0.1779923
0.22193158 -0.069997355 -0.006166013 0.20185064 -0.20264365 -0.25040865 0.03937122 0.17496546
0.02947098 -0.026007876 0.101240255 0.18784793 0.155137 -0.053284172 -0.18791564 -0.019931551
0.051603198 -0.20298631 -0.17441271 0.23994328 -0.061682355 -0.1523529 0.00900346 -0.06328119
-0.002320826 -0.22918317 0.2318087 0.11862172 0.26382712 -0.073632926 -0.23894714 0.15749341
0.07894822 0.06977133 0.24134883 -0.15291125 -0.0018423755 0.23700294 -0.13115989 0.20863232
0.037816536 -0.16984138 0.23046634 -0.14968427 -0.19961151 -0.2649011 0.00953017 0.22982235
-0.09746392 0.1882276 0.14052197 -0.24513732 0.19685403 -0.07448487 0.22154674 -0.2634791
0.10657918 -0.19333021 -0.24611603 -0.19876587 -0.12974612 0.19055097 -0.15984157 -0.0029883098
-0.22521742 0.22146074 -0.16272707 0.14598362 -0.135199 0.19746782 0.20622474 -0.039958324
-0.10310892 -0.15681109 0.081223294 0.18735857 0.19709809 -0.22351901 -0.15908743 0.22846898
0.25458348 0.16953886 -0.013625879 -0.20817122 -0.2270929 0.24409442 -0.07848566 0.25344288
-0.21460134 0.05848617 0.21689458 -0.25415674 0.25970867 -0.17527714 -0.20254067 0.0553249
0.2366441 -0.25561762 0.23400177 0.12344359 0.1071096 0.09774101 -0.10234715 0.27260312
0.2227357 -0.06802496 0.2558342 0.18407732 0.21674319 0.25570574 0.23334152 0.23912881
-0.22935571 -0.099496625 -0.25193042 -0.11986409 0.023151113 0.2540944 0.23282902 -0.019374436

linear2.weight f4 [256, 512]
00000000: 7ca1 1d3d a0ff 26bd 6cb1 2ebc f797 2e3c
00000010: 37ec b4bc e73a 14bd 6b70 19bd d766 edbc
00000020: 9013 b33c f16f 233c e359 b5bc 1042 233c
00000030: 4139 febc 177f 413c c8c1 2f3c 0946 02bd
00000040: 5331 a5bc 3516 983c d701 133d 3367 adbb
00000050: dccd be3c 282c f1bc b7ea 2abd 7de9 9dbc
00000060: 8f63 0a3d 00a7 f03b 0c9c b7bc c634 cc3b
00000070: b3e7 4e3c 54eb 24bd b68b e43c a8af e4bc
00000080: c66b 55bc 3010 3e3c b6b7 f5bc 3b66 933c
00000090: 0b15 df3b 160d cebc 7a49 87bc 8eb6 c9bc
000000a0: d4d1 293d 02e1 72bc 4dab b8bc 0343 bd3b
000000b0: c831 26bc 9f97 7b3c 8bbb aabc f7b6 163d
000000c0: 6b73 a7bc d215 753c 4690 5abb b98d 1dbd
000000d0: 9233 00bd cd82 a9bc 5ae1 ab3c b040 5dbc
000000e0: 5700 81bc 46ba fbbc cf3d 51bc 9cdc 853c
000000f0: eb3a f1bc 250a 3a3c 27dd e1bc 4a93 9fbb
00000100: 1ecc c63c 1902 c13c a066 28bd 97e6 d43c
00000110: a96c d3bc b121 1fbd e3c9 c4bc a582 2d3d
00000120: 4af6 2ebd 49f1 083b 9a9b 07bd ba58 153b
00000130: 949c 26bc a5d3 1bbd 1987 b0ba cda2 073d
00000140: 0596 e63a c5bb 31bd 21c6 13bd 84f7 153c
00000150: 13e3 983a c0f0 80ba 3cac d3bc 408b 153c
00000160: 9231 e03c 2d6a 053d 0a46 a63c 25b9 243d
00000170: 36be d53c 1d09 4bbc 6e25 02bc 8f59 213b
00000180: 4f95 89bc b6e9 493c 20db 843c 95e1 2a3d
00000190: fc15 5d3c 78c1 44bb 012a 3a3c 0146 333d
000001a0: 2f61 90bc 5617 c2bc d731 e4bc b1c6 283d
000001b0: 6155 133d 5208 093c 925d 21bb dcd0 e73c
000001c0: 6a2c 443b 359c 1c3d 96f0 2fba 5ff5 8fbb
000001d0: f547 273c 1e95 ae3c 88f4 a8bb 4d5c 783c
000001e0: 0ff6 31bd 9f6b 883c 487f 8b3c cc0a 0a3d
000001f0: 033d 213d 8364 79bc acd0 e53c 7460 f43c
00000200: bd69 09bd 6402 4a3c 13f1 26bd 852a 123c
00000210: b4eb 50bc ab11 203d 9ced 113b ff99 e9bc
00000220: 598d 27bd a085 60bb 4ed1 253d 6eb0 61bc
00000230: b99a 8abb 488d 063d 70f6 093d 1fdd ccbc
00000240: 2bd5 c8bc fedc f03c 278e 84bc bdb1 1e3d
00000250: 5a62 32bd 598b 053d 2487 613c 0e99 95bc
00000260: 0665 343d 70db a83b 60ee 153b 5c9d 07bb
00000270: a37a 5a3c 501e 093b 37ee 6b3c a864 cf3c
00000280: d2ae b3bc 7eec e83c d02a 81bc e04f 4e3c
00000290: 12a7 5cba d762 17bd 411e 0c3d 59c3 5439
000002a0: a9b3 213d d395 cc3c 39a0 26bd a235 90bc
000002b0: 0f59 23bd 36d0 f63c d4d7 693c 4e74 15bd
000002c0: f9af 023d 9548 093d a2dc 293d d748 85bb
000002d0: 02a6 333d 2cb0 12bc 22e8 b93c 2225 983a
000002e0: 2b9f 0b3d 2875 8dbc f721 7e3c e7d6 263d
000002f0: 81ab 143d 80b5 bc3a 6ad8 d3bc 4eb5 dc3c
00000300: 633f 10bd 95ca 103d a3bb 8fbc f884 b13b
00000310: 5890 b8bb 70a6 e3bc 1187 01bd fbac ea3c
00000320: 0c07 313c 8fdf 043d 9d23 013d 9325 0cbb
00000330: e084 f1ba 21a0 893c 498e 28bd 4ef3 6b3b
00000340: 4d1b 55bb a5a2 c93c 5753 33bd 24a1 153c
00000350: 3a41 cdbc 2509 97bc 3d72 eabc 7168 033d
00000360: 5bbf 533c 11ea 26bd 2e37 15bd 0a4b a3bc
00000370: 6b42 233d 6d96 6e3b febf 10bd 1952 5bbc
00000380: 1837 d5bc a45a 0dbd c4e3 9f3c f698 af3c
00000390: 00b6 39bc 48df 803c dad5 d03c 5e34 01bd
000003a0: b9ab 06bd ef27 013d 1b8a c13c b2e8 943c
000003b0: f17e 82bc 1583 21bc 250e 093d b03f ba3c
000003c0: ea06 a9bc e8e3 653c 6cdb 133d 00cb e33c
000003d0: 8894 4dbc 5974 2ebc d955 903c 7a3b 0c3c
000003e0: 5ba5 343d 2ac3 543c a029 b2bb f833 f63b
000003f0: 47b7 02bd b5aa 08bd a14f debc 3083 a3bc
0.03848408 -0.040771127 -0.010662418 0.010656348 -0.022085292 -0.036188986 -0.037460726 -0.028979702
0.021859914 0.009975419 -0.022137588 0.009964481 -0.03103316 0.011810086 0.010727353 -0.031805072
-0.020165121 0.018565277 0.035890426 -0.0052918433 0.02329152 -0.02944 -0.041727748 -0.019276375
0.033786353 0.0073441267 -0.022413276 0.006231877 0.012628484 -0.04026349 0.02789865 -0.02791579
-0.0130261835 0.011600539 -0.029994827 0.017993083 0.0068079284 -0.025152724 -0.016514529 -0.024623182
0.041459873 -0.014824154 -0.02254262 0.0057758107 -0.010143705 0.0153559735 -0.02084138 0.036795583
-0.020440778 0.014958816 -0.0033350154 -0.038465235 -0.03129918 -0.020692253 0.02098148 -0.013504192
-0.015747232 -0.03072847 -0.012771084 0.016340546 -0.02944704 0.011354958 -0.027571274 -0.004869853
0.024267253 0.02356057 -0.041113496 0.02598886 -0.02580865 -0.03885049 -0.024022048 0.04236092
-0.04271535 0.002089577 -0.033107378 0.002278848 -0.010169167 -0.038043637 -0.0013467997 0.033114243
0.0017592317 -0.04339196 -0.036077622 0.009153251 0.0011664353 -0.0009837374 -0.025838964 0.009127438
0.027367387 0.03257196 0.02029707 0.04021563 0.026091676 -0.0123923095 -0.007943494 0.0024620031
-0.016794829 0.012323787 0.016217768 0.041719038 0.013494011 -0.0030022543 0.011362554 0.043767933
-0.017624466 -0.023692768 -0.027855797 0.041205112 0.035970096 0.0083638 -0.0024622423 0.028297834
0.00299337 0.038234908 -0.00067115703 -0.004393264 0.010210027 0.021311339 -0.0051561035 0.015158725
-0.04344755 0.01665288 0.017028466 0.033701703 0.039364826 -0.015221718 0.028053604 0.029831149
-0.033548106 0.0123296715 -0.04075725 0.00892127 -0.0127515085 0.03907935 0.002226687 -0.028515814
-0.040906284 -0.0034259334 0.04048281 -0.013774974 -0.00422987 0.03284958 0.033682287 -0.025007783
-0.024515709 0.029402252 -0.016181065 0.038743723 -0.043550827 0.032603595 0.01376513 -0.018261459
0.044041656 0.005153112 0.0022877678 -0.0020693159 0.013334903 0.0020922609 0.014400057 0.025316551
-0.021933947 0.02843308 -0.015767485 0.012592286 -0.00084172294 -0.036959495 0.03420854 0.00020290668
0.039477978 0.024973786 -0.040680144 -0.0176037 -0.039879855 0.03012858 0.014272649 -0.03648787
0.0319061 0.033516485 0.041470177 -0.004067521 0.04385949 -0.008953135 0.022693697 0.0011607746
0.03408734 -0.017267779 0.015511028 0.04073229 0.03629637 0.0014397353 -0.02586003 0.026941922
-0.0352167 0.035349447 -0.017545527 0.0054174624 -0.0056324415 -0.027789325 -0.03162295 0.028646937
0.010804903 0.032439765 0.031528104 -0.00213847 -0.0018426441 0.016799988 -0.04115132 0.0036003175
-0.0032517493 0.024613688 -0.04378065 0.009132657 -0.025055517 -0.018436978 -0.028618926 0.032082025
0.012924041 -0.040750567 -0.036429577 -0.019933242 0.039858263 0.0036405579 -0.035339348 -0.013386273
-0.026027247 -0.03451027 0.019517787 0.021435242 -0.011334896 0.015731469 0.025492597 -0.031544082
-0.03287861 0.031532224 0.023625424 0.018177364 -0.015929671 -0.009857913 0.033460755 0.022735447
-0.02063318 0.014031388 0.03609793 0.027806759 -0.01254762 -0.010647857 0.01761906 0.008559102
0.044103008 0.012985984 -0.005437091 0.0075135194 -0.03191307 -0.033365924 -0.02713758 -0.019960016

linear2.bias f4 [256]
00000000: b070 fe3c a8d8 8f3b f35e 12bc 6ca4 1e3d
00000010: fe8f a63c 5a50 13bc b5bd c9bc a0f4 8f3c
00000020: 9d61 383d 35a9 23bd 60a5 4fbc 21c3 303c
00000030: a7f4 d23c c75a b0bc 5f85 3dbd 25ea 29bb
00000040: e4da 13bd 0cb1 ffbc a46f f2bc a5be 8abc
00000050: f01f 73bc 8696 e63c a0f8 393d 3226 f63c
00000060: 387f e13c ee29 8cbc 240d 38bd 6daf 2cbd
00000070: 78ec fdbc e84d fa3c 9a67 353d 4531 c1bc
00000080: 2cea 3f3c 9054 263d d5ce c5ba 3611 213d
00000090: 2cf8 513d 5995 55bc 6c2c 27bd e69b c6bc
000000a0: c08e 953c 78c6 153c fa4a 303d 9332 ba39
000000b0: 2b7d 033d 8366 77bc b080 8abc 5d0d b43c
000000c0: 5364 1fbd 5f0b afbc ef69 4d3d 513d e63b
000000d0: c867 cebb 8dd1 d6bb bf76 2abd 8e1c febc
000000e0: f994 103d 2042 94bb 1892 783c 0c1a 13bc
000000f0: 20bd 8cbc cf67 a33c 91a8 533c ae37 96bc
00000100: f059 7d37 c85c 943c 6e48 353d 1202 883c
00000110: ba02 b73c fb09 38bc e499 0abd 2fc6 cdbc
00000120: 609e d43a 08c6 083d 1422 1cbd 188a 1ebd
00000130: a66c 5cbc e2db 25bd cf62 f03c 1262 fabc
00000140: 8bc4 273d 4640 90bc af53 c9bc d257 943c
00000150: 6c65 383d 487d acbc 3397 6bbb 0054 3e3d
00000160: 6f37 2ebd 6145 233d 560e e5bb 947d 2a3d
00000170: 772c 013c a0b7 b0bb c9c9 f9bc 5022 eb3c
00000180: 9ce7 303d 52fe 8b3c bd47 05bd 52a4 2f3d
00000190: 256b 25bd d017 48bb 3da4 af3c e904 a7bc
000001a0: e582 02bd a39e 373c 2be5 a63c 1a8d e53c
000001b0: 9db2 143d 1e71 19bd ff30 8ebc 9fc5 013d
000001c0: 2b50 9cbc 4fbe 44b9 443b 0f3c fa1a e9bc
000001d0: cb40 34bd d4c8 32bc 4d79 183d ada0 12bc
000001e0: e764 cb3c a00b 093c 609f 2c3c 18c6 d5bb
000001f0: 1dfc 503c f0e2 a33b 3a92 063d 1bdf 11bd
00000200: 6e5c 15bd dc6b 2bbd ddac b93c 96fd 18bc
00000210: 01f1 1f3d 0e80 253d 6469 203d cb22 213d
00000220: e473 1d3d b01d e73c 17d3 04bd 8700 843c
00000230: 5a1f b73c 7385 323d 9928 ef3c 56c9 063d
00000240: ddda d0bc ac38 bb3c f433 fabb 7fb6 973b
00000250: 3857 093d 62df c4bc 2056 873a 48dc e4bc
00000260: 45e2 aabc 8a6b dbbc 92be a83c a278 063d
00000270: 1e61 25bd 7c9f cebb 710b b93c a238 9a3c
00000280: e942 de3c 1437 33bc 7c08 85bc 7ad6 4b3d
00000290: 3b90 a93c c87a 193d 4a62 ca3c aa24 833c
000002a0: 2029 243c aa96 b93c 5872 2abd a55d 9f3c
000002b0: 66ef c73c 666b df3c b92a 0ebd 9290 bcbc
000002c0: 6058 e23c ce5f 5ebc 0c0f 333d f540 013c
000002d0: e00e 073d 16bf 58bc 033f 3a3d 0af5 19bd
000002e0: 5b79 2c3d 059d 913c 26db 9c3c 3ab6 26bd
000002f0: db91 d93c 240d 263d 4809 24bd e9f7 243d
00000300: aab0 a0bb ff7d 9ebc 9c75 48bc 2c5e df3b
00000310: a2d2 ac39 5624 c83c ba64 013d 76a4 1a3d
00000320: 1357 32bc 29fe f8bc ce9f dfbc 608a 663c
00000330: caf1 18bd fa62 393c 4a4c da3c b3f4 bcbc
00000340: f02c 2cbd 7bc6 09bd f4ee debc c77e d93c
00000350: a17d 193d e421 19bd 3559 33bd b849 fdbc
00000360: 7816 bcbc d014 f73b 2c2c 293c e706 92bb
00000370: e738 da3b ca67 533c b3e0 ddbc b3b3 17bd
00000380: dd1d 393d 3e2e 61ba 68b1 1cbd 6674 063c
00000390: 1e84 c23c dd58 023d d3e9 20bd eae3 29bd
000003a0: 4985 0c3d f173 ec3a 244c b9bb 37e1 0b3d
000003b0: dff5 b03c a1cf b2bc df84 54ba 7c31 6a3d
000003c0: aa4a 06bd 6da4 bdbc c925 0a3d 7447 c23c
000003d0: f9b7 003d 5f30 63bc d718 e6bc eb89 a0ba
000003e0: 106a c7bb 4e31 eebc 3355 01bd 0290 1f3d
000003f0: bec2 033d bdcc 1ebd f507 c83c 2d3e 09bd
0.031059593 0.004389841 -0.0089337705 0.038731024 0.020332333 -0.008991325 -0.024626592 0.017572701
0.045014966 -0.03995629 -0.012673706 0.01078871 0.025751425 -0.021527661 -0.04626977 -0.0025926915
-0.036097422 -0.031212352 -0.02959425 -0.01693661 -0.014839157 0.028147947 0.045403123 0.03004751
0.027526483 -0.017109837 -0.044934407 -0.042159487 -0.030996546 0.030554727 0.044288255 -0.023583064
0.011713546 0.04060799 -0.0015091548 0.039323054 0.051262066 -0.013036096 -0.04081385 -0.02424426
0.018256545 0.009141557 0.043040253 0.00035514365 0.03210179 -0.015100124 -0.016907066 0.021979028
-0.038914036 -0.021367727 0.050149854 0.0070263525 -0.006298993 -0.006555742 -0.04161715 -0.031019475
0.03529832 -0.0045244843 0.01517155 -0.008978378 -0.017180026 0.01994696 0.012918607 -0.018337097
1.5100915e-05 0.018110648 0.044258527 0.01660255 0.022340167 -0.011232848 -0.033838168 -0.025118915
0.0016221516 0.033391982 -0.038118437 -0.038705915 -0.013453638 -0.0404929 0.02934399 -0.030564342
0.040958922 -0.017608773 -0.024576036 0.018108282 0.0450186 -0.021055833 -0.0035948276 0.046466827
-0.042533334 0.039861087 -0.0069902344 0.041623667 0.007884136 -0.0053929836 -0.030491726 0.028702885
0.04318963 0.017089043 -0.032539118 0.042881317 -0.040385384 -0.0030531771 0.02144062 -0.020388084
-0.031863112 0.011207256 0.020372948 0.028021384 0.03630315 -0.037461393 -0.017357348 0.031682607
-0.019081196 -0.00018762912 0.008742157 -0.028455246 -0.044007104 -0.010912139 0.037225056 -0.008949441
0.024828387 0.008364588 0.010536045 -0.0065238588 0.012755421 0.0050014183 0.032854296 -0.03561316
-0.0364651 -0.04185091 0.022665435 -0.009337803 0.0390482 0.040405326 0.03916301 0.03933982
0.0384406 0.028212398 -0.032427873 0.016113533 0.022353817 0.0435843 0.029194163 0.032906853
-0.025494987 0.022854172 -0.007635588 0.0046299095 0.033530444 -0.024032298 0.001032535 -0.02793707
-0.020859847 -0.026784677 0.020598684 0.03282989 -0.04037582 -0.006305633 0.022588464 0.018825833
0.027131515 -0.010938425 -0.016239397 0.049765088 0.020698657 0.03747061 0.024705071 0.016008694
0.010019571 0.02265485 -0.041612953 0.019453833 0.024406146 0.027272891 -0.034708712 -0.023018155
0.027630031 -0.013572646 0.04371552 0.007889022 0.03297317 -0.013229152 0.04547025 -0.037587203
0.04210792 0.017775068 0.019147467 -0.04070113 0.026558807 0.040539876 -0.040047914 0.040275488
-0.0049038725 -0.019347189 -0.0122350715 0.006816646 0.0003296333 0.024431389 0.0315902 0.0377545
-0.010885018 -0.03039463 -0.02729788 0.014071077 -0.037339963 0.011315102 0.026647706 -0.0230659
-0.042035043 -0.03363655 -0.027213551 0.02654971 0.037473325 -0.037385836 -0.043786246 -0.03091894
-0.022959933 0.007540323 0.010325473 -0.004456389 0.0066596153 0.012903163 -0.027084684 -0.03703661
0.045194495 -0.00085899595 -0.038255125 0.0082064625 0.023744639 0.031823028 -0.039285492 -0.04147712
0.034306798 0.0018039924 -0.0056548286 0.03415033 0.021601615 -0.02182752 -0.00081069575 0.0571761
-0.03278605 -0.023149693 0.03372744 0.023715712 0.03142545 -0.013866513 -0.028088016 -0.0012248134
-0.0060856417 -0.029076245 -0.031575393 0.038955696 0.032168142 -0.038769472 0.024417857 -0.03350656

linear3.weight f4 [128, 256]
00000000: d047 ad3c 4616 59bc b2b4 873d a431 173d
00000010: 5995 03bd 07a8 543c d03d 843c e095 9ebc
00000020: 34ff 013d 2574 14bb c9be 04bd f359 dc3c
00000030: 8b55 3cbd 2619 79bd 8c72 673d 7b8d 083d
00000040: 1874 b0bc 35fc 763c a6cd 18bc 4c69 6b3d
00000050: b691 7cbd 7607 b5bc caf6 0d3c d770 f4bc
00000060: 83c1 0abd 786d 923d 07b0 68bd 2645 0f3d
00000070: 8264 49bd df97 59bd 3d84 b03d 39b2 77bd
00000080: a21b 0d3d 337b 9abb 3b2c 983b 2a09 3dbc
00000090: dae7 b23c b748 6c3d c331 463d c014 613d
000000a0: 60a8 5cbc b0da ccb9 53b9 4ebd e1c0 3e3d
000000b0: 4440 d339 6682 93bc dc40 3a3d 7ebd 663c
000000c0: b485 2f3d 7e45 07bd c8da e3bc c47c e9bb
000000d0: 8c9c c43c 172f eb3c ec18 c0bc a7bf 3dbd
000000e0: b2f7 303d 0054 08b9 b04c 253d 1c95 f3bc
000000f0: 3958 043d d4c5 ec3b e033 3fbd ef93 8c3c
00000100: d965 8e3c bfd7 883c 480a 3ebd e858 9ebb
00000110: a21a 593d e87d 09bc cf87 d93c ea99 ec3a
00000120: 9051 ff3b e7ea 093d 3e98 373d 44c0 cbbc
00000130: 88e8 4f3d 6dc6 18bd f82b 3f3d 8098 80bc
00000140: b46e 913d 8897 0bbc a20c 9bbb db52 13bc
00000150: f962 723d 578c 823a cce8 1bbc b234 1bbd
00000160: 3aaa 0fbc 0ecd 703b 9ee6 6d3d 906d da3c
00000170: 2ce4 4d3c cea9 78bd a63d 0ebc a980 82bd
00000180: 1b2c 993d 3e1c 213d ca04 d5bc c61d c2bc
00000190: acb9 6e3d d6d9 453d 440f e8bc 6511 3e3c
000001a0: 7660 063d d9c4 27bc b4a1 8fbc 2fb2 1dbd
000001b0: d9db b63b 189d 14bc c940 1abd ae9f 5a3d
000001c0: 3e14 823d f85d d13c bbd3 873c 3df1 4c3d
000001d0: 3878 93bc 68dd 10bc 9d8e 00bd a153 efbc
000001e0: 14a5 a4bc 4097 7e3c 3b49 9dbc cca3 393d
000001f0: 7be9 583d e0cf 89bc cdf5 ccbc 80be b1bc
00000200: fa5d 8b3d 642f de3c 43d6 8a3d 2e88 8f3d
00000210: 302d 523d 5a02 fe3c 931b 0f3d f45e f8bc
00000220: 615e 1bbc c4de 8bba a41b 37bd b28d 19bd
00000230: be67 133d 176e 693d 8393 583d eb10 eb3a
00000240: b577 23bd 5c6f 203c 82e3 173c eebd f53c
00000250: ed0d 91bc baa4 eb3b aecf 1ebd 31dc 5f3d
00000260: 8cb6 8b3d e3c3 5f3c 3b1c 893d 15b7 8e3d
00000270: dbbb 3dbd 89c4 4abc ea1b 813c bda3 9dbc
00000280: e8fa 5e3d 8045 1bbd 705e f4bc 55c2 d6bc
00000290: b9a8 143d 439f 7cbd 5ce8 503d 6721 b0bb
000002a0: 9027 1ebd 0598 283c 7949 51bd 4c77 e83c
000002b0: e7d0 f73c d0bd f03c 6833 7a3c 40cb 0e3d
000002c0: c644 c03c 5882 00bd da0c 833b 3915 62bd
000002d0: ec03 903c b056 6abc 5e5b fabc 82bb 1a3d
000002e0: aa90 5e3d d8b8 373b 4758 853c 174d 9abb
000002f0: 3385 42bd 1f6d 713d fb13 2bbb 3107 6e3c
00000300: 2f79 023d 904b 0f3d 147b 573c 19ee 41bd
00000310: e60a ae3c ff06 8b3d cf5d f9bc fc1a 31bd
00000320: eaab 2bbb 216e 413c 9ef1 323d 34e4 633d
00000330: 7f2e 153d b370 2dbd 3ac1 5abd 207e af3c
00000340: c2f5 f33c d0c5 42bd 1e12 79bc fd42 28bd
00000350: c9fe 0bbd 6b7b 9b3c 2fa8 83bc 313d 073d
00000360: 00a4 c4bc 7807 e03c b040 1dbd 8664 aabc
00000370: faad a7bc 00b0 05bd 9a82 a9bc 1390 3fbd
00000380: 0f63 1e3d 3d39 4ebd 6fed 5ebc 496a 2cbd
00000390: 406e ecbc b63c 813d d957 1f3d a31d 7fbc
000003a0: bad9 36bc 2b57 0bbd 7842 8d3d 6285 a0bb
000003b0: 660d 643d c4f8 4dbd a85a a4bc 5b33 6c3d
000003c0: 12cc 553d 5d71 533d e502 853c f628 87bc
000003d0: c09d 1c3b e9c3 e8bc 2c68 0ebd 0f59 743d
000003e0: f0ab 0cbc ef2f 333c ea7b 983c 5132 7ebd
000003f0: b503 65bd fe99 e43b d7ab 2dbd 0bc3 9f3d
0.021152407 -0.013249939 0.06626262 0.036912575 -0.03212485 0.012979514 0.016142756 -0.019358575
0.03173752 -0.0022652235 -0.03240851 0.02689836 -0.045980018 -0.060815 0.056505725 0.03333805
-0.021539733 0.015074779 -0.009326374 0.057473466 -0.0616624 -0.022098284 0.008664796 -0.029838962
-0.033875953 0.07149786 -0.056808498 0.034978054 -0.049168117 -0.05312335 0.086189725 -0.0604727
0.03445018 -0.0047143935 0.0046439446 -0.011537829 0.021839071 0.057686534 0.0483873 0.05495143
-0.013467878 -0.00039072847 -0.050469708 0.046570662 0.00040292938 -0.018006515 0.04547201 0.014083264
0.04285212 -0.033025257 -0.027814284 -0.007125469 0.024000429 0.028708978 -0.023449384 -0.046325352
0.04320497 -0.00013001263 0.040356338 -0.029734187 0.0323107 0.0072257314 -0.04668033 0.017160384
0.01738255 0.016704438 -0.046396524 -0.004832376 0.053003915 -0.008391835 0.026554016 0.0018051241
0.0077917054 0.033671286 0.044822924 -0.024871953 0.05075887 -0.03729861 0.04667279 -0.015697718
0.07101193 -0.008520015 -0.0047317306 -0.008991922 0.05917642 0.0009960037 -0.009515952 -0.03789205
-0.0087686125 0.0036743316 0.05808126 0.026663572 0.012566607 -0.060708813 -0.00868169 -0.06372196
0.074791156 0.039333574 -0.02600326 -0.023695838 0.05828254 0.048303448 -0.028327592 0.011600827
0.032806836 -0.010239803 -0.01753316 -0.038500007 0.005580407 -0.009070657 -0.03765944 0.05337494
0.06351517 0.025557503 0.016580453 0.05003475 -0.01800166 -0.00884185 -0.031386007 -0.029214682
-0.020098247 0.0155389905 -0.019199958 0.045322224 0.05295704 -0.016822755 -0.02501955 -0.021697283
0.06805034 0.027122207 0.067791484 0.07008396 0.051312625 0.03100698 0.034938406 -0.030318715
-0.009482951 -0.0010671248 -0.044704095 -0.037488647 0.035987608 0.056989755 0.052875053 0.0017934119
-0.039909083 0.009792175 0.009270551 0.029997792 -0.017706836 0.007191268 -0.038772278 0.05465335
0.068219274 0.013657543 0.06694838 0.06968514 -0.04632173 -0.012375959 0.01576038 -0.019243116
0.0544385 -0.037908077 -0.029830188 -0.026215712 0.03629372 -0.06167532 0.051002845 -0.0053750756
-0.03861195 0.0102901505 -0.05109546 0.028377198 0.03025098 0.029387385 0.015271045 0.034861803
0.023470294 -0.031374305 0.0039993348 -0.05519602 0.017579995 -0.0143028945 -0.030561145 0.037776478
0.05433718 0.002803376 0.016277445 -0.004708897 -0.04749031 0.058941957 -0.0026104439 0.014528082
0.03185385 0.03498417 0.013151903 -0.04734621 0.021245431 0.06788444 -0.03044024 -0.043238625
-0.0026194998 0.011806042 0.043687455 0.055637553 0.036421295 -0.042343806 -0.05340693 0.021422446
0.029780272 -0.04755193 -0.015202073 -0.04107951 -0.03417853 0.018979749 -0.016071407 0.03301734
-0.024003983 0.027347311 -0.03839177 -0.020799886 -0.0204687 -0.03263855 -0.020692158 -0.04676826
0.03866869 -0.050347555 -0.013606413 -0.04209355 -0.028861165 0.06310408 0.038902137 -0.015571031
-0.0111603085 -0.034018677 0.068974435 -0.004898713 0.05567684 -0.05028607 -0.02006276 0.057666164
0.05219657 0.051621784 0.016236732 -0.016499024 0.0023897737 -0.02841373 -0.034767315 0.059655245
-0.008585915 0.010936721 0.018613774 -0.062059704 -0.05591174 0.006976365 -0.042400207 0.07800873

linear3.bias f4 [128]
00000000: a3a6 7d3d 3f22 bcbb 4a89 96bc fae6 5f3b
00000010: 2a77 f43c e375 ed3c 6c3b 143c 9a35 0abd
00000020: b202 31bd f3d5 903c 75e4 8f3b f68b 603d
00000030: f23a 6fbd cd1b 823c 2430 2dbd 5a25 013d
00000040: 58e6 28bc ffd9 6bbd e641 2cbc 8939 e53c
00000050: be66 dc3d a849 0e3d 465e b43d f540 c13c
00000060: 8a11 77bd 5a44 7f3d 38ff 333d 2d12 8b3d
00000070: 4cf4 953b 7768 b3bc 9705 ff3d 7026 2eba
00000080: 7107 25bd b862 43bc ee9f 39bd a19a 1d3d
00000090: 2a1f 2bbd 271b d63c 2c90 e43c b02b 6c3d
000000a0: 6269 0e3d 6487 0cbd 2495 853a 1ab2 cb3a
000000b0: e4ec 523c 71ed 52bd aef7 33bd f2bc febc
000000c0: 6018 6cbb 7bf6 fd3c e356 3abd 5e39 8e3d
000000d0: 0058 843a 1ba7 5f3d 43b0 8c3d 5bd2 a53c
000000e0: 5a2f 6e3d a231 0cbd 401d ca3c 88a5 51bd
000000f0: 7837 0ebc a5b5 633c fb3b 13bd 3c22 cd3c
00000100: 102c 363c 3827 4bbd 9fbd acbc 7578 d93c
00000110: acee ccbc 77a0 dfbc 9587 e13c f6e4 053d
00000120: a6a5 1bbd b7d8 71bd 8473 d33c 8193 7cbc
00000130: b472 4fbd c2d4 2f3d fc0d ff3c c3a0 4b3d
00000140: 59a6 89bc a1ad 2cbd e402 663d 449c d53c
00000150: 27ac febc d1aa 60bd 0eb4 163d eace 99bc
00000160: bc14 42bd 8ab4 2d3d 54dc f6bc 91a6 123d
00000170: 78e7 1e3d c6bd 49bd e09b 793c f82b c5bc
00000180: ac60 79bd c91d 91bc 78a5 dbbc 1c2a 503d
00000190: dee1 833d 119f 3b39 284c ad3d 8f1c 21bd
000001a0: adea db3c 6298 903c 7f9e b23c 5cdd 67bd
000001b0: 1756 913d 0710 223c 6a2d a93b fbd9 64bd
000001c0: a47c dcbc c338 e03b 91e2 b23c 3ce9 213d
000001d0: 9f47 3b3d 2743 5d3d 7883 0cbc 573b f7bc
000001e0: 0e5c 25bd 85a3 0abd 97eb 513d ba5d 3bbd
000001f0: 4ce1 1cbd 083a fdbb 8ec0 48bd f6e1 5bbd
0.061926495 -0.005741387 -0.018376011 0.0034164772 0.029841978 0.028986877 0.00904737 -0.033742525
-0.04321546 0.017680144 0.004391248 0.054820977 -0.058405824 0.015882397 -0.04228224 0.03152976
-0.0103088245 -0.057580944 -0.010513758 0.027981536 0.10761784 0.034738213 0.08807044 0.023590544
-0.06031946 0.062321045 0.043944567 0.06790576 0.0045762416 -0.021900399 0.12452238 -0.0006643301
-0.0402903 -0.011925392 -0.045318536 0.038477544 -0.041777767 0.026135994 0.027900778 0.05765885
0.03476847 -0.034308806 0.0010191542 0.0015540749 0.012873862 -0.051495973 -0.043937378 -0.031095956
-0.003602527 0.03100132 -0.045493018 0.06944536 0.0010097027 0.054602724 0.06869557 0.020241907
0.058150627 -0.03422702 0.02467215 -0.051183254 -0.008680217 0.013898288 -0.035945874 0.025040738
0.011118904 -0.04959795 -0.021086512 0.026546696 -0.025016151 -0.027298195 0.02753047 0.032689057
-0.03799977 -0.059044566 0.025811918 -0.015416027 -0.0506465 0.04292751 0.031134598 0.04971386
-0.016802954 -0.042157773 0.0561551 0.02607549 -0.031087948 -0.054850403 0.036792807 -0.018775422
-0.047383055 0.042408504 -0.030134358 0.03580338 0.038794965 -0.049253248 0.015234917 -0.024068817
-0.06088321 -0.017714398 -0.0268123 0.05082141 0.06439565 0.00017892967 0.08461791 -0.039333876
0.0268453 0.017650787 0.021804092 -0.05660759 0.070964985 0.0098915165 0.0051628845 -0.055871945
-0.026914902 0.006842704 0.02183655 0.03952907 0.0457226 0.05401912 -0.0085762665 -0.030179663
-0.040370993 -0.03384735 0.051250067 -0.04574368 -0.038300797 -0.007727865 -0.04901176 -0.05368229

linear4.weight f4 [64, 128]
00000000: 490b 16bd b1f3 4abc d10d 96bd 54ea 42bd
00000010: 54b8 5bbd e4de 6ebd a0de 3ebc 50f7 c13b
00000020: cc8b 71bd 0fea b33c f85a d33c e9a4 c33d
00000030: 03b2 9abd cfc1 013d 035a 38bd b843 923d
00000040: 80fa 07bd 6aa4 ca3b d998 953d ec79 75bc
00000050: b2ec da3d 0879 973c 6cfb 073d d516 a53d
00000060: 5cd1 aabd e7a7 093e 837f 5c3d a73b 0dbd
00000070: a20e ae3d 64e2 9abd 9470 1a3e 5eda a5bc
00000080: 24fb 0d3d 31de 24bd 5076 133c 6d3b e03c
00000090: 3096 babc a3b3 92bc 73ff 23bd 7797 91bd
000000a0: 7106 43bd 3ac1 603d 055e 50bc d16f af3b
000000b0: 9832 383d 324d ad3d f4e3 6d3d 8a0f b4bc
000000c0: fc48 b4bd b83c 813d a6ee fb3c cda2 7b3d
000000d0: 0028 ce3c 425c 6bbc 2b0c 06bd 870b 08bd
000000e0: e145 0e3d ddb4 9dbd fd45 6e3c 4faf ac3d
000000f0: 4a6f 12bd c85e b4bc 1f75 e13c 6665 a6bd
00000100: e72a 1d3e caaf 84bd 7dd6 dfbc 69ba 9cbd
00000110: 183c c83d 48cb 21bd 8632 75bd a564 383d
00000120: b0d5 443d 6cd2 8c3d bccf a93c 8a51 7e3d
00000130: 7a4d b3bc 1ec8 7abd 69b5 243c c0d5 663d
00000140: aaea 93ba 44fa ae3d db11 c03d cad8 95bd
00000150: 971d 22bd ec50 1e3c d38a e13d 7215 923d
00000160: cf81 b53d dace e33c 00f5 95bb f31b b13d
00000170: 7772 e1bb b693 6d3d c16a 7ebd f8c8 de3c
00000180: 1890 cbbc c762 033d ff71 953d 038f dc3d
00000190: 443e babb 1e0d 44bd e125 ec3d 6b20 4cbd
000001a0: 58c9 d93d 5cfd 223d 2791 783d 5c80 bebc
000001b0: 4fa4 c73b 1d05 53bd 925e 753d 49e8 8fbd
000001c0: 57b5 18bd 1035 41bd c820 6a3c f5e6 3c3d
000001d0: e151 85bc 9e13 c83d fa1d 0fbd 3127 d9bb
000001e0: 49ae 27bd 1f07 44bd 6b75 bb3d 1f57 a33c
000001f0: c057 eabb d750 903d ca09 4a3d b146 9e3d
00000200: ae02 013d cd10 aabd f2b5 99bd 78ca 033d
00000210: db3c bebc d0ad a5bd 20a3 6fbd b45b fcbc
00000220: f1fb 403d 07ed 1d3e 2796 823d 11ce 623e
00000230: 20e9 5f3b 3d31 e03c bb2e f13c f350 863d
00000240: 8109 b93d c6ed c83c f76b 00bd cc43 5f3d
00000250: 6baf 423e 3559 8ebd 0fc5 083e 820e 9f3c
00000260: b17c 07bd 5992 573e 0ce6 72bb 5b7e c53d
00000270: 025d c23d e9c6 70bc 5be1 763e 2810 f4bc
00000280: a41d 72bd 8019 023d 2015 b83b 404a f73d
00000290: b9f2 9b3d 383a 223c bebe 423d 2a1a 803d
000002a0: a4ed 303d d079 de3b 0d83 1a3e 1339 eebc
000002b0: 7b70 e43d 78b9 333c 49b3 533d bf49 973d
000002c0: 80e0 3fbc 4508 ad3d e6a2 553d 7973 bc3d
000002d0: 1596 5dbd 6a47 203e 9168 7b3d 346b a23c
000002e0: dec5 153d c0f5 aabd 7819 82bc cfbd ba3d
000002f0: 2d52 d73d d028 413d b548 1b3d 53d0 96bd
00000300: 339e 633e ca61 85bc ac65 073d 8d78 a43d
00000310: de96 b03d 5881 f33c 22c8 32bd b981 e3bc
00000320: 517b 9abd f53f 1b3b 447f a1bd 38e8 b7bc
00000330: a73f 943d 5896 88bd 49bc 86bd 78cd a73d
00000340: 13d7 19bc 3653 66bd f124 5b3e 963d 24bd
00000350: 348e 0abc d94d 8cbd dd3c f73d 263f 3e3c
00000360: 5267 6a3c c74e 273e b061 98bc 9828 303e
00000370: 016e 423c c840 fd3c 3a56 203d 87a3 973d
00000380: 8b98 233c 9ca8 c53c 52e2 7e3d ccf1 263e
00000390: 5696 8d3d f8e6 0b3d c0c1 753e 385e 07bb
000003a0: ed50 dc3d 089c 96bc 0e50 36bb f933 a73d
000003b0: f49b 9c3d 796a 90bc 54e4 2b3d 1b65 0f3d
000003c0: 1fad 7a3c a17b 3dbd d7e9 90bd e26d b63d
000003d0: 0c51 17bd cbb5 e1bc 08e0 0a3c c682 11ba
000003e0: f082 d0bb a277 603d 893c 8b3d 33fb 19bd
000003f0: e78e 02bd 0835 9cbd 48e7 6b3c 7e9a 673d
-0.036631856 -0.012387202 -0.07326854 -0.047586754 -0.053642586 -0.058318034 -0.011649758 0.0059193745
-0.05897121 0.021962194 0.025800213 0.095529385 -0.07553484 0.03167897 -0.045007717 0.071418226
-0.03319788 0.0061841505 0.07304544 -0.014982682 0.10689677 0.01849033 0.03319876 0.080609955
-0.083407134 0.13442956 0.053832542 -0.034480717 0.08498885 -0.07562712 0.15082008 -0.020245727
0.034663334 -0.04025096 0.009000376 0.027372086 -0.022776693 -0.017907923 -0.040038537 -0.07108968
-0.047613565 0.054871775 -0.0127177285 0.0053539057 0.044970125 0.084619895 0.05807872 -0.021980066
-0.08802983 0.06310409 0.030753445 0.061434556 0.025165558 -0.014365258 -0.032726448 -0.03321412
0.03473461 -0.077005126 0.014543054 0.08431875 -0.035750665 -0.022017851 0.027521668 -0.08124809
0.15348397 -0.064788416 -0.027323956 -0.076527424 0.09777087 -0.039500505 -0.059862636 0.045017857
0.04805535 0.06876072 0.020728938 0.06208948 -0.02188753 -0.061226003 0.010053017 0.05635619
-0.0011285145 0.08543828 0.09378406 -0.0731674 -0.039579 0.009662848 0.11012807 0.071329966
0.0886265 0.027808595 -0.0045763254 0.08647909 -0.0068801004 0.058002196 -0.062113527 0.027195439
-0.024848983 0.032076623 0.07297134 0.10769465 -0.005683692 -0.047864072 0.11530662 -0.049835604
0.106341064 0.039792404 0.060685303 -0.023254566 0.006092585 -0.05151855 0.059904642 -0.07026727
-0.037282314 -0.047169745 0.014290042 0.046118695 -0.016274394 0.09769367 -0.034940697 -0.0066269864
-0.040937696 -0.047858354 0.09153255 0.019939004 -0.007151574 0.07046669 0.04932574 0.07728327
0.031496696 -0.08303986 -0.075054064 0.03217551 -0.023222378 -0.08089793 -0.058505177 -0.030805446
0.04711527 0.1542245 0.063762955 0.2214892 0.0034166053 0.027367229 0.029441228 0.065584086
0.09035016 0.024527442 -0.031352963 0.054508016 0.19012229 -0.06950609 0.13356422 0.019416098
-0.0330779 0.21051921 -0.0037063388 0.09643241 0.09490396 -0.014695861 0.24109404 -0.02979286
-0.0591103 0.0317626 0.0056177527 0.12074709 0.07614655 0.009901576 0.047545187 0.062549904
0.04319538 0.0067894235 0.15089054 -0.02907995 0.111542664 0.010969512 0.05168465 0.07387113
-0.01171124 0.08448843 0.052157305 0.09201712 -0.054098208 0.15652242 0.06137902 0.019826509
0.036565654 -0.08347654 -0.015881285 0.09118234 0.10513721 0.047158062 0.037911136 -0.073639534
0.22228317 -0.016281981 0.033055946 0.08030806 0.08622526 0.029724762 -0.043647893 -0.027771818
-0.07543052 0.0023689244 -0.07885602 -0.022449598 0.07238703 -0.06669301 -0.06578881 0.08193487
-0.009389657 -0.0562317 0.21400811 -0.040097795 -0.008456755 -0.06850786 0.120721556 0.011611735
0.01430686 0.16338645 -0.018601269 0.17202985 0.011867047 0.03091468 0.039144732 0.07404237
0.0099851 0.02412825 0.062227555 0.16303176 0.0691344 0.034155816 0.23999691 -0.0020655524
0.10757623 -0.018384948 -0.0027818712 0.0816421 0.07646933 -0.017628895 0.041965798 0.03500853
0.015300064 -0.04626048 -0.070758514 0.08907677 -0.036942527 -0.027552506 0.008476265 -0.0005550798
-0.006363265 0.05480159 0.067986555 -0.037593078 -0.031874564 -0.076273024 0.0143984035 0.05654382

linear4.bias f4 [64]
00000000: b972 bd3d 8d5a 4c3e 2c06 5b3c 30df 4b3c
00000010: 16e9 40bd 234b 92bd 6491 053c b094 3f3e
00000020: a3e6 98bd 968f 053d 00bf 96bc 8c87 0abd
00000030: 1cf2 9cbd 3b54 5f3e 1a43 35bd e610 3dbd
00000040: eea6 fcbc cab2 aa3a f954 533e d726 0e3e
00000050: 8832 b9bd e95f 373a c6ce b03d 8183 663b
00000060: c844 0dbc eba4 2b3d 391d 97bd e7e5 813e
00000070: 0d1e 72bd 1d9b 2ebd f3b2 96bd 6c06 1e3c
00000080: b5ee 64bd e691 4d3d c6d3 18bd 385a 80bd
00000090: 393a 6bbc df6d c33d 40c6 37bc f00b 643c
000000a0: 878b 16bd d565 6ebd 30da 0a3e 1af5 00bd
000000b0: abab 033e 15e0 943b e021 48bd 6c24 c3bc
000000c0: 40c3 a3bd 568a 093e efb7 4b3d f1bb 093b
000000d0: 8e1e 953d ea82 393e 2ad7 eebc 8866 22bd
000000e0: b9a1 b53b 7d98 773d 322c 8b3b 8da2 2f3c
000000f0: e0fb fe3c 1f61 b03d 69e1 f43c 87dc a33b
0.09250397 0.19956417 0.013368171 0.012443349 -0.047097288 -0.071432374 0.00815234 0.18709064
-0.074658655 0.032607637 -0.018401623 -0.033820674 -0.07663366 0.21809475 -0.044253446 -0.046158694
-0.030841317 0.0013023254 0.20637883 0.13882004 -0.09042841 0.0006995188 0.08633189 0.0035173597
-0.008622356 0.041905325 -0.07378621 0.25370714 -0.05911069 -0.042628396 -0.073583506 0.009645086
-0.05589171 0.050187968 -0.037311338 -0.06267208 -0.014357143 0.095424406 -0.0112167 0.013918862
-0.036754157 -0.058202583 0.13559794 -0.031483747 0.12858455 0.004543314 -0.04886043 -0.023821078
-0.07996225 0.13431677 0.04973596 0.0021016563 0.072812185 0.18116346 -0.029155333 -0.039648563
0.0055429605 0.06044816 0.004247212 0.0107199075 0.031125963 0.086122744 0.02989264 0.005000654

linear5.weight f4 [1, 64]
00000000: 517a b23e c50b 473f 0427 e4bd 3ff3 debd
00000010: 59dc d6bd aefe 153e 0efa 083e ff04 2c3f
00000020: 60f4 4a3c 1c36 8bbd 886d fd3d d012 203d
00000030: a45f eb3d 3971 293f 28b0 cdbd e27b adbd
00000040: e2a7 1e3e be64 21bd 543a 723f 17eb 0a3f
00000050: 2c7f 3b3d 250e 3b3e 1b1e 0d3e e3df 9cbd
00000060: 1abb ffbd 9a42 f5bd c43b 0b3d 1fe1 2b3f
00000070: c421 a7bd 64ef 063d 5a0c b1bd 3356 e9bd
00000080: aaa0 a3bd 7209 f5bd 8b7f a4bd cc3d 5cbd
00000090: 61de 833d bf1d 273e 9450 da3d 6855 983d
000000a0: 6e1d dcbd 3a8e acbd 151e d33e 6eb9 af3e
000000b0: a0e6 d83e f821 8abd a831 a33c 415e bbbd
000000c0: f2af 5bbc 7d97 bd3e b846 53bd 277f 9e3c
000000d0: 3603 e13c 34cc 0a3f 4e83 ccbd 8055 6bbb
000000e0: 76fb 8b3e ff6c e7bd b708 863e 35f1 edbd
000000f0: 85f5 30bd 0493 903d 1924 a7bd 8b04 903e
0.34858945 0.77752334 -0.11140254 -0.10886239 -0.10491247 0.14647934 0.13376638 0.67195123
0.012387365 -0.0679743 0.12374407 0.03908044 0.114928514 0.6618839 -0.10043365 -0.084708944
0.1549373 -0.039402716 0.9462025 0.5426497 0.045775577 0.18267114 0.13781016 -0.076598905
-0.12486859 -0.11975594 0.033992544 0.6714038 -0.08160737 0.032943144 -0.08644934 -0.11393394
-0.079896286 -0.11964692 -0.080321394 -0.05376987 0.064389 0.16319941 0.106599 0.07438165
-0.10747801 -0.08425565 0.41233888 0.3432116 0.42363453 -0.0674476 0.019921139 -0.09148837
-0.013408648 0.3702964 -0.051581115 0.01934774 0.027467351 0.5421784 -0.09985982 -0.0035909116
0.27340287 -0.11300086 0.26178524 -0.11618272 -0.043202896 0.07059291 -0.08161182 0.28128466
